Using Keras version 2.1.0
Found 9866 images belonging to 11 classes.
Found 3430 images belonging to 11 classes.
Found 3347 images belonging to 11 classes.
_________________________________________________________________
Layer (type)                 Output Shape              Param #   
=================================================================
conv2d_1 (Conv2D)            (None, 196, 196, 64)      4864      
_________________________________________________________________
max_pooling2d_1 (MaxPooling2 (None, 98, 98, 64)        0         
_________________________________________________________________
conv2d_2 (Conv2D)            (None, 94, 94, 32)        51232     
_________________________________________________________________
max_pooling2d_2 (MaxPooling2 (None, 47, 47, 32)        0         
_________________________________________________________________
conv2d_3 (Conv2D)            (None, 43, 43, 16)        12816     
_________________________________________________________________
max_pooling2d_3 (MaxPooling2 (None, 14, 14, 16)        0         
_________________________________________________________________
flatten_1 (Flatten)          (None, 3136)              0         
_________________________________________________________________
dense_1 (Dense)              (None, 700)               2195900   
_________________________________________________________________
dropout_1 (Dropout)          (None, 700)               0         
_________________________________________________________________
dense_2 (Dense)              (None, 600)               420600    
_________________________________________________________________
dense_3 (Dense)              (None, 11)                6611      
=================================================================
Total params: 2,692,023
Trainable params: 2,692,023
Non-trainable params: 0
_________________________________________________________________
Epoch 1/50

 1/82 [..............................] - ETA: 12:29 - loss: 2.3957 - acc: 0.1083
 2/82 [..............................] - ETA: 6:32 - loss: 2.3902 - acc: 0.1208 
 3/82 [>.............................] - ETA: 4:33 - loss: 2.3908 - acc: 0.1194
…
